data.pth (torch, 4503 bytes, 6 tensors)

l1.weight f4 [8, 41]
00000000: 8da7 31be b9cc 9f3e 36d9 d0bc ccea e73e
00000010: 9e51 a73e 69ee 2c3f 4908 e4be d9ba 25be
00000020: 7748 a13e b754 17bc 3a69 503f 1fba e8be
00000030: 49f6 0fbe bcda e8be 55bc e8be 4f3f a1be
00000040: 47b2 f53e 2bb6 0f3f 02b3 c63d c21c 5b3c
00000050: 52ce 393f 0f5a f1bd 67bd d53d d1b4 ee3e
00000060: 0a67 d43e 2be7 60bd 3eb8 343f 616a 983e
00000070: 3b69 bf3d 76b4 963e a381 683e a665 3bbe
00000080: 3394 173e 4ae3 f1be b888 11be 9fcf 943e
00000090: 21bb e8be 1d94 cd3e 5e8f 353e 5607 373e
000000a0: e670 b83c 4ac0 ae3e e8fd d23e 5a6a e13d
000000b0: c7c0 ffbe 8cd1 2a3c f2f7 143e 6e90 2d3f
000000c0: 5733 b53e 844a d53e 8574 d73d 998a 9f3d
000000d0: 8787 293f 6cee a83e 53a9 1c3f 4773 113f
000000e0: f93a 433e db6c 833d aa31 69be 4878 173f
000000f0: 8423 a83e 72d3 813e af87 ad3e 2fa5 cc3e
00000100: 4ec8 6bbe b1f5 e1be 48f0 8fbd 2cfa e13e
00000110: 5924 45bd 322a a5be 9368 c13e 35c8 b7be
00000120: bb44 9cbe 0f08 0b3f 602c 2b3e 63c3 db3e
00000130: 3425 61be 7456 013f 9f73 80be 7f82 88be
00000140: 23b4 ecbd ea6f ac3e 0cb4 083f 8320 cbbd
00000150: a906 203f 0c99 0ebd 7675 013f 02fb a4be
00000160: 6c91 e3bc aabb 273e 43e1 ccbd 7bc3 06be
00000170: f722 87be 857c 83be 66c1 ca3e ec5c 91be
00000180: d7cd 4bbe 73f5 323f 2936 7e3e 8d80 013f
00000190: b1d0 02bf 5080 edbe 06ac 95be 5137 063f
000001a0: dfdb 25bd 8d2f fc3e 8b97 16be fa42 b4bd
000001b0: 78ff 82be a8f8 2d3e df40 093e 9e9e 5fbe
000001c0: 4232 09be 1811 b03d 2078 19be c924 863f
000001d0: 9322 1b3f 8196 833e 0085 493f da6e c83e
000001e0: 6113 b43e fb47 a23e 8f76 413f ec8b 3d3f
000001f0: c92a 153f 56a5 97bd c155 2d3f c50b c43c
00000200: a97a dbbe 7331 08bf 8617 62be 39bf 9f3e
00000210: f5eb 3d3e 658a dbbe 1c7a dbbe b3ff 083f
00000220: 713e 78be ac7d dbbe 0c59 c7be f8e4 b0bc
00000230: 7eab 99bc 859f eebc fd1c 333b cb6d d5be
00000240: 1ca1 143f 52b1 c43d 4d8c 86be e642 343f
00000250: 94a7 0a3f 9c60 67be aba0 0dbd 245e 333f
00000260: 7b09 6b3e fe82 fa3e 4be4 1e3f dc80 07be
00000270: 5981 6d3f 2d57 063f 22cf f7bd c17a dbbe
00000280: 050c 9bbd ea6a 063f fd44 9cbd 804c 5b3e
00000290: 3751 29be b66a 7fbe 219a 0b3f 56f8 bb3d
000002a0: b689 e23e d44f 273f 0314 22be 176f bc3e
000002b0: 6222 c73c 9ebc 91be 2c7b 293f 67e2 e1be
000002c0: 6a0e f8bd b2f2 e1be cd9b e1be c3b0 183f
000002d0: 240f 823e ef0a 0c3f 45da 8fbe 6412 abbe
000002e0: e38d 163f 64d4 cb3d 7368 07be 145b e43e
000002f0: 58e6 003d 72f9 4bbe bae5 013f a37a fe3e
00000300: 4432 f4bd 8637 21be 28cd 17be 1e4b 19be
00000310: b813 35be 5e6f fdbe b3ca 34be d68d 063f
00000320: 2249 363f a9d1 043f b265 083e fce8 003f
00000330: c678 5c3d d240 cebd 30e1 283f 8ad6 35be
00000340: bcdf babe 8b91 6d3e 4e05 503f f7e1 82be
00000350: 3cbb 3d3d ab53 ed3e 496c 51be 26c3 383f
00000360: cb7d ebbe e30a 943d b47b ebbe 2380 ebbe
00000370: 1d53 f6be c42b b53d 3363 0c3e 1b74 513f
00000380: fdfd 3a3f 1dd7 0e3f 9016 97bc f658 283f
00000390: 5c93 7d3e 58ad 47be 73fd 43be b398 093f
000003a0: a7b5 233d b146 62be 1bdd 1a3f 20cd b5be
000003b0: 5827 c2bd 02a1 163f d8cd 6c3c e104 523d
000003c0: 80ea 933e 257d ebbe 555f a83e 058b 413d
000003d0: 6721 953e 83b6 b93e 1357 82be 3449 68be
000003e0: 3ec8 023f af8c 963e e214 863d c606 2b3f
000003f0: 2c9c f1bd 0b6e 883e e61c d3bd ad9c c7bd
-0.17349072 0.31210878 -0.0254942 0.45296323 0.32679456 0.67551285 -0.4453757 -0.16184558
0.315006 -0.009236506 0.81410563 -0.454545 -0.14058794 -0.4547938 -0.45456186 -0.31493613
0.47987577 0.5613734 0.09702112 0.013373556 0.72580445 -0.117847554 0.10436516 0.46622327
0.41484863 -0.05490796 0.7059363 0.2976866 0.09346243 0.29434556 0.22705702 -0.18300495
0.14802627 -0.4724372 -0.1421231 0.29064652 -0.45455268 0.40152064 0.17730471 0.17873892
0.022514772 0.3413108 0.4120934 0.11006613 -0.49951765 0.010425936 0.14547709 0.6779851
0.35390732 0.41658413 0.10520271 0.07790107 0.66222423 0.329944 0.6119587 0.56816524
0.19065465 0.06417247 -0.22772852 0.5916791 0.32839596 0.25356632 0.3389258 0.39969775
-0.23025629 -0.4413276 -0.07028252 0.44136178 -0.048130367 -0.32258755 0.37775096 -0.35894933
-0.30521187 0.5430917 0.16716146 0.42922506 -0.21986848 0.5052254 -0.25088212 -0.2666206
-0.11557796 0.33679134 0.5339973 -0.099183105 0.6251016 -0.034813926 0.50569856 -0.32222754
-0.027779303 0.16380182 -0.10003903 -0.13160507 -0.26393864 -0.25680938 0.39600676 -0.28391206
-0.1990274 0.69905776 0.24825348 0.5058678 -0.5109969 -0.46386957 -0.29232806 0.52428156
-0.04049289 0.49255028 -0.14706247 -0.08801837 -0.25585532 0.16989386 0.13403653 -0.21837851
-0.13398078 0.085970104 -0.1498723 1.0479976 0.6059963 0.25700763 0.78718567 0.39147073
0.35171035 0.31695542 0.7557153 0.7404163 0.5826841 -0.07404582 0.67708975 0.023931393
-0.4286702 -0.53200454 -0.22079286 0.3120058 0.18547042 -0.42879024 -0.428666 0.53515166
-0.2424257 -0.42869318 -0.38935125 -0.021593556 -0.018758532 -0.0291288 0.002733051 -0.41685328
0.58058333 0.09604134 -0.26278916 0.7041458 0.54161954 -0.22595447 -0.034577053 0.7006552
0.22952835 0.48928064 0.620671 -0.1323275 0.92775494 0.5247677 -0.12100054 -0.4286709
-0.07570652 0.5250689 -0.07630346 0.21415901 -0.16534887 -0.2494305 0.5453206 0.09178226
0.4424569 0.65356183 -0.15827946 0.36803505 0.024308387 -0.28464216 0.6620357 -0.44118044
-0.12112124 -0.44130474 -0.4406418 0.59644717 0.25402176 0.54704183 -0.28096214 -0.33412468
0.5881025 0.0995262 -0.13223438 0.44600737 0.031469673 -0.19919375 0.5074116 0.4970294
-0.1192365 -0.15743837 -0.14824355 -0.14970061 -0.17683303 -0.4949903 -0.17655449 0.52560174
0.7120534 0.51882416 0.13320044 0.50355506 0.053826116 -0.10070957 0.6596861 -0.17757621
-0.3649882 0.23200051 0.81258094 -0.25563022 0.04632114 0.46352896 -0.20451464 0.7217277
-0.4599441 0.07228639 -0.45992815 -0.45996198 -0.48110285 0.08846238 0.13709716 0.8181779
0.73043805 0.55796987 -0.018443376 0.65760744 0.24763244 -0.19499719 -0.19139652 0.53748626
0.03996816 -0.22097279 0.6049363 -0.3550806 -0.094801605 0.5883943 0.014453374 0.051274184
0.28889847 -0.45993915 0.32885233 0.04725172 0.29127046 0.36272058 -0.25457057 -0.22684175
0.51086795 0.29404208 0.06546952 0.6680721 -0.117973655 0.26646456 -0.10308246 -0.097466804

l1.bias f4 [8]
00000000: 35be e83e ccd7 763f 0040 023f 1778 db3e
00000010: 40f1 e13e 6c7c eb3e d415 1e3f 0496 193f
0.45457616 0.9642303 0.50878906 0.4286506 0.44129372 0.45993364 0.6175206 0.5999453

l2.weight f4 [8, 8]
00000000: 7a86 d7be 6898 073f d95c 5f3f 0627 883f
00000010: 19a8 3abe 08d4 f3bd 30f0 613e 3c00 90bf
00000020: e020 eb3e caee 1fbf 012b bf3d a52b 133f
00000030: 246a 1d3f a8d6 093e d7cb e03d 5f28 3cbf
00000040: 9b6d 5a3e 6f22 3dbf c3dd c13d 1e9a 2d3f
00000050: 2176 61be 67dd 69bf b641 3f3f 9670 ca3e
00000060: 1697 863e edd7 483f 08e6 35bf 7f0a e4be
00000070: 1ffa a8be 4948 2d3f b8cb 67be 9e01 a03f
00000080: 83da b63e e8fb 493f 3499 75bf 09bc d9bd
00000090: 986c eebc eb13 863f 2c41 6dbb 3aa2 3d3f
000000a0: d266 513f 4177 a03d bbd5 343f b7e6 49bf
000000b0: be5a 733f 58db 9a3f 6539 3c3f cbff 16bf
000000c0: 6948 28bf 61f8 a23f b007 d43e cb7c 6e3e
000000d0: 5b52 21bf 106b 523d c590 8abf 5707 053f
000000e0: e1cb 05bf 371b 773f aeb9 293e cb93 90bf
000000f0: 7e2f a73e 88fa 61bf df84 873f 5f6f d23e
-0.42094785 0.5296693 0.8725105 1.0636909 -0.18228187 -0.11905676 0.2206428 -1.1250072
0.4592352 -0.6247374 0.09334374 0.5748847 0.6149008 0.13460791 0.10976379 -0.734991
0.21330874 -0.73880666 0.09466126 0.6781329 -0.22017719 -0.9135346 0.7470964 0.3953902
0.26287144 0.78454477 -0.71054125 -0.44539258 -0.33003327 0.67688423 -0.22636306 1.2500494
0.35713586 0.78900003 -0.95936894 -0.10631568 -0.029104516 1.0474828 -0.0036202176 0.74075663
0.81797516 0.07835246 0.70638627 -0.7886767 0.95060337 1.2098188 0.7352508 -0.5898406
-0.6573549 1.2732049 0.41412115 0.23289792 -0.6301629 0.051371634 -1.082543 0.51964325
-0.5226422 0.965259 0.16574737 -1.1295103 0.3265342 -0.88272905 1.0587424 0.41100594

l2.bias f4 [8]
00000000: c9d1 543f 0185 90be 0ec7 b03d 166f 003f
00000010: 44ee 8e3e 99e3 8c3e 48f6 493f 6fd3 193f
0.83132607 -0.28226474 0.08631717 0.50169504 0.27916157 0.27517393 0.7889142 0.6008825

l3.weight f4 [7, 8]
00000000: 0ac9 35bf 182b 40bf 1cfc efbe 3bb6 3b3f
00000010: 88ef 2e3f ec89 d9be ac09 ce3e 1c10 e9bf
00000020: ad9d 90bf 822e 83bf 48d9 f4be 207a a03e
00000030: eab2 023f f863 233f 2561 6fbf cf67 a7be
00000040: f632 25bf df08 8bbf a75a d6be e2ac 093f
00000050: c1e1 6bbd bda5 b9bf 670c 3b3f ac30 2b3f
00000060: cdb7 3b3d a678 32bf d056 11bf ab37 e3be
00000070: 06ac 4bbf c013 303e 9ca2 a5be 83e2 603f
00000080: 1074 66bf bb8a 643f d98e 86bf f782 6dbf
00000090: bf8a 45bf 36b2 473f 73b7 19bf 4633 b2bf
000000a0: c2da 083f 0a02 2b3e 27b2 553f 6533 13bf
000000b0: da8c a8be d2a2 70bf fe78 84bf c4ef 87bf
000000c0: 7581 303f 9680 a5bf 35b5 70bf 5ea1 47bf
000000d0: 05f1 f3be fcfe b6be b262 673f 7ab8 b1bf
-0.71009886 -0.75065756 -0.46872032 0.73324937 0.68334246 -0.4248804 0.40241754 -1.8208041
-1.1298119 -1.0248568 -0.47822022 0.31343174 0.5105425 0.63824415 -0.93507606 -0.32696387
-0.64530885 -1.0862082 -0.41866037 0.53779423 -0.057588343 -1.4503704 0.730658 0.6687114
0.045829583 -0.69715345 -0.5677309 -0.4437841 -0.7955936 0.17195034 -0.32350624 0.8784563
-0.9002085 0.89274186 -1.0512344 -0.9277796 -0.77164835 0.78006303 -0.60045546 -1.3921897
0.534588 0.16699997 0.83474964 -0.57500297 -0.3291996 -0.93998444 -1.0349424 -1.0620046
0.68947536 -1.2929866 -0.940265 -0.779806 -0.4764482 -0.35741413 0.9038497 -1.3884423

l3.bias f4 [7]
00000000: ec74 06bf 9073 443e be8c a93e b658 b0be
00000010: f04a b2bc 00f1 8c3e fcc7 5b3e
-0.5252216 0.19184709 0.3311519 -0.3444268 -0.021764249 0.27527618 0.21463007
