src/data.pth (torch, 4503 bytes, 6 tensors)

l1.weight f4 [8, 41]
0	0x3d4bda5b	0.049768787
1	0xbe191354	-0.1494878
2	0xbd625580	-0.05525732
3	0xbde2386a	-0.110459164
4	0xbc9c8151	-0.019104632
5	0x3f407d6b	0.7519137
6	0xbd1f02b8	-0.038820952
7	0x3d724e9c	0.059157
8	0x3d708de7	0.05872908
9	0xbe9d10fd	-0.30677024
10	0x3f1e0586	0.6172718
11	0xbeb31d18	-0.34983134
12	0xbe8996e5	-0.26872936
13	0xbeb32d5e	-0.3499555
14	0xbeb3148b	-0.3497661
15	0x3d5339ba	0.051568724
16	0xbe0a5023	-0.13507132
17	0x3d7f73d1	0.06236631
18	0x3df9d4cc	0.12198791
19	0xbda524bb	-0.080636464
20	0x3f05899e	0.5216311
21	0xbd01d4f6	-0.031697236
22	0xbbca1f7f	-0.0061683054
23	0xbc52ae67	-0.012858964
24	0x3d959a90	0.07304871
25	0xbde4e5a3	-0.11176612
26	0x3f16002d	0.5859402
27	0xbc31e79f	-0.010858445
28	0xbde35314	-0.1109983
29	0xbdff1610	-0.1245538
30	0xbddbb2e3	-0.10727479
31	0xbdc442bb	-0.0958304
32	0x3dc8e2ec	0.09808907
33	0xbe9fa022	-0.3117686
34	0xbd8815bf	-0.06644773
35	0xbdab8f19	-0.08376903
36	0x3f09af8d	0.53783494
37	0xbdc4a376	-0.0960149
38	0xbdc4431c	-0.095831126
39	0x3de2dd40	0.11077356
40	0xbd1b6ef5	-0.037947614
41	0x3f09ad9d	0.5378054
42	0x3f318332	0.69340813
43	0x3dea6d82	0.11446668
44	0x3f009873	0.5023262
45	0x3e240a6d	0.16019602
46	0xbf00352c	-0.50081134
47	0x3ea7c58c	0.32767904
48	0x3ed02ee0	0.40660763
49	0x3f0df7b9	0.5545612
50	0x3f06d9a7	0.5267586
51	0xbed27d99	-0.41111448
52	0x3f1cd473	0.6126167
53	0x3f177291	0.5915919
54	0x3ee28113	0.442391
55	0x3f1cade1	0.6120282
56	0x3df87aa5	0.121327676
57	0x3ce21d8e	0.027601983
58	0xbc86cfe1	-0.016456546
59	0x3f42131d	0.75810415
60	0x3f056a31	0.5211516
61	0xbec45b04	-0.3835069
62	0x3eae04af	0.33987948
63	0x3f4fb80d	0.81140214
64	0x3a02f96f	0.0004996275
65	0x3ef8393a	0.4848116
66	0x3f2ead47	0.6823315
67	0xbe5acb5a	-0.21366635
68	0x3ebcfee5	0.3691322
69	0x3ecccc3f	0.39999577
70	0x3f0cd6e2	0.55015385
71	0x3eff4e89	0.49864605
72	0x3f09261e	0.5357379
73	0x3f55b64b	0.8348128
74	0x3f65e24b	0.8979842
75	0x3f033904	0.51258874
76	0x3dd0c9a6	0.101947114
77	0x3ef53589	0.47892407
78	0x3df9b29e	0.12192272
79	0x3f0c0024	0.54687715
80	0x3d2f1720	0.042746663
81	0x3f110d80	0.56661224
82	0x3ebfd66b	0.37468275
83	0xbd82e29c	-0.063908786
84	0xbcc72fb1	-0.024314733
85	0xbdb40358	-0.087897
86	0x3f33caec	0.7023151
87	0x3ed05f30	0.40697622
88	0xbe3e706b	-0.18597572
89	0xbee15f01	-0.44017795
90	0xbe1e42d8	-0.15455186
91	0xbe6ac998	-0.22928464
92	0x3f3633a5	0.71172553
93	0xbee3b4c9	-0.44473866
94	0x3ebfe57c	0.3747977
95	0xbed503b3	-0.41604385
96	0xbecac9d8	-0.3960712
97	0xbe907694	-0.28215468
98	0x3ed78b71	0.42098573
99	0x3f3e7d9f	0.7441043
100	0xbdb4e848	-0.08833367
101	0x3d1f76bb	0.03893159
102	0x3cbc8bc0	0.023015857
103	0x3ea2f305	0.31826034
104	0xbe0fb703	-0.14034657
105	0x3f265919	0.649797
106	0xbd803425	-0.06259946
107	0xbeb368a2	-0.35040766
108	0x3e19a59f	0.15004586
109	0x3ee7e1b9	0.452894
110	0xbe10613a	-0.14099589
111	0xbc9f7811	-0.019466432
112	0xbd743378	-0.059619397
113	0xbe7d15f4	-0.24715406
114	0xbe58050b	-0.21095674
115	0x3f1e156d	0.61751443
116	0x3dfb59a6	0.122729585
117	0x3f375f56	0.71629846
118	0xbf00d0a6	-0.5031837
119	0x3f08b13f	0.53395456
120	0x3e7111f7	0.2354201
121	0x3ed8d9d1	0.4235368
122	0x3e608e76	0.21929345
123	0x3f18e277	0.5972056
124	0x3e89565a	0.26823694
125	0xbe394cb9	-0.18095674
126	0xbea1715e	-0.31531805
127	0x3dbab40c	0.091163725
128	0x3f43ea75	0.7652963
129	0xbe6bbc33	-0.23021011
130	0xbf268a8b	-0.6505515
131	0xb98c9ae0	-0.00026818272
132	0xbde5682e	-0.11201511
133	0x3f1ef2ce	0.6208924
134	0xbecf380d	-0.4047245
135	0x3ea32e2e	0.3187117
136	0xbeec8ab9	-0.46199587
137	0xbedf27bf	-0.4358501
138	0xbf0961cf	-0.5366487
139	0x3dd6ef3b	0.10494848
140	0x3e767878	0.24069393
141	0xbe5d3eb4	-0.2160595
142	0x3d073cc7	0.033016946
143	0x3ed157ed	0.40887395
144	0x3e94e3bf	0.29080006
145	0xbdae2b6f	-0.08504378
146	0x3e76a828	0.24087584
147	0xbe80909a	-0.25110322
148	0xbe247388	-0.16059697
149	0x3f097d8d	0.537072
150	0xbe267974	-0.16257268
151	0xbe3f7fa5	-0.18701036
152	0x3db9d008	0.09072882
153	0xbe45cc52	-0.19316223
154	0xbe3782e8	-0.1792103
155	0x3c529082	0.012851836
156	0x3f637502	0.88850415
157	0x3ecc557d	0.39908972
158	0x3e393102	0.18085101
159	0xbf1a7d8c	-0.6034782
160	0x3d152c6d	0.03641932
161	0xbd9cc2e1	-0.07654358
162	0x3e101ac8	0.14072716
163	0x3f157263	0.58377665
164	0xbe49be33	-0.19701461
165	0xbf07fdf2	-0.53121865
166	0x3f0964f3	0.5366966
167	0xbe84394e	-0.2582497
168	0xbe651ef3	-0.22375087
169	0x3ef3db52	0.47628266
170	0x3f1256bd	0.571636
171	0x3ee8971e	0.45427793
172	0xbe3b9152	-0.18317154
173	0x3f02135f	0.5081081
174	0x3f17bf30	0.59276104
175	0x3f2b2e80	0.6686783
176	0xbe66c2c6	-0.22535238
177	0x3f053d3c	0.5204656
178	0x3f28432b	0.6572749
179	0x3f3ea6b0	0.74473095
180	0xbd478fbe	-0.048721068
181	0xbe4cc77e	-0.19997975
182	0xbedb2808	-0.4280398
183	0xbea9ac44	-0.3313924
184	0x3ece19e9	0.40254143
185	0xbdba89ac	-0.0910829
186	0xbea6f643	-0.32609758
187	0xbd2facbc	-0.04288934
188	0xbe826450	-0.25467157
189	0xbe231985	-0.15927704
190	0x3e940d13	0.28916225
191	0xbe2d77fd	-0.16940303
192	0xbeace84f	-0.33770987
193	0xbe7652ba	-0.24054995
194	0xbee339da	-0.44380075
195	0xbeb840e3	-0.35987005
196	0xbe6b27df	-0.22964428
197	0xbf3e1f8c	-0.74266887
198	0xbe7ba926	-0.24576244
199	0xbe1d14a1	-0.153399
200	0x3f59ecf1	0.8512717
201	0xbe43b2cc	-0.19111174
202	0xbdfade65	-0.1224945
203	0xbe415703	-0.18880849
204	0x3e0da3ca	0.13832012
205	0xbe158a54	-0.14603549
206	0x3ecac229	0.39601257
207	0x3e8c3a5a	0.2738827
208	0x3f069ddf	0.5258464
209	0x3f0a3f90	0.5400324
210	0xbe8e08c7	-0.27741072
211	0xbd5b95e1	-0.053609733
212	0x3ecc0a0d	0.39851418
213	0x3ec12a06	0.37727374
214	0x3ee7580a	0.45184356
215	0xbe8e08e6	-0.27741164
216	0x3d9a598a	0.075366095
217	0xbd8d0a5f	-0.06886744
218	0x3e3335b6	0.17500958
219	0x3e0355a5	0.1282564
220	0x3e852e52	0.26011902
221	0x3f0ee842	0.5582315
222	0x3f2f01e1	0.6836224
223	0x3e0adcf3	0.13560848
224	0x3eb57afd	0.35445395
225	0xbe901437	-0.28140423
226	0xbe63f86a	-0.22262731
227	0x3e1fb28d	0.15595455
228	0x3f245031	0.6418486
229	0x3ebd2103	0.36939248
230	0x3f1ebd03	0.6200716
231	0xbeb01638	-0.34391952
232	0x3f1689c6	0.58803976
233	0x3f0df8a2	0.5545751
234	0x3eac40b6	0.3364312
235	0x3f141ab4	0.57853246
236	0x3ee1fef9	0.4413984
237	0x3ea679f0	0.32514906
238	0xbe8e07bc	-0.27740276
239	0xbd7ff3fd	-0.062488545
240	0x3f501623	0.8128378
241	0x3f502be1	0.81316954
242	0x3f1dad08	0.6159215
243	0x3f132ab0	0.5748701
244	0x3f08b445	0.5340007
245	0x3eb225f2	0.34794575
246	0xbcf51139	-0.029915439
247	0xbb3ffea9	-0.0029296076
248	0xbed80420	-0.42190647
249	0x3eb4b879	0.3529699
250	0x3d696b7e	0.05698728
251	0xbf0bb6a1	-0.54575545
252	0x3efc1200	0.49232483
253	0xbcaeb372	-0.0213258
254	0xbe519837	-0.20468222
255	0x3f35984a	0.709355

l1.bias f4 [8]
0	0x3eb31895	0.34979692
1	0x3f693b97	0.9110655
2	0x3f00ce76	0.50315034
3	0x3f1a7745	0.6033824
4	0x3f7ab62a	0.9793421
5	0x3e8e055e	0.2773847
6	0x3f0f98a2	0.56092274
7	0x3ef5c25a	0.4799984

l2.weight f4 [8, 8]
0	0x3f3683d1	0.71294886
1	0x3f16430e	0.5869607
2	0xbc34e44b	-0.011040757
3	0x3f85582a	1.041753
4	0xbe048031	-0.12939526
5	0xbf33307a	-0.69995844
6	0xbf604ffa	-0.87622035
7	0x3f869db6	1.051688
8	0xbef1ab34	-0.4720093
9	0x3f5e285f	0.8678035
10	0x3f54bb92	0.8309871
11	0x3f1fa86c	0.62366366
12	0xbf8db66d	-1.1071297
13	0x3f8ddf27	1.1083726
14	0x3ec605de	0.3867635
15	0xbe690afb	-0.22758095
16	0xbe54b41c	-0.20771831
17	0x3f4ac56e	0.79207504
18	0xbf733e4c	-0.9501693
19	0xbeae9d9e	-0.34104627
20	0xbf8191c7	-1.0122613
21	0x3f2539d1	0.64541346
22	0x3ef6de97	0.48216698
23	0x3e69a028	0.22815001
24	0x3f63765d	0.88852483
25	0x3e824d0d	0.2544941
26	0xbe8d38e0	-0.27582455
27	0xbe322a5f	-0.17398976
28	0x3f4f8f7a	0.810783
29	0x3988618b	0.00026012617
30	0xbf8ffd57	-1.1249188
31	0x3f9b8782	1.2150729
32	0x3e06879c	0.13137668
33	0xbdeaebb2	-0.114707366
34	0xbda8a740	-0.082350254
35	0xbe3e8a3c	-0.1860742
36	0xbeb049f8	-0.34431434
37	0xbe0f0af6	-0.13969025
38	0x3dd5e110	0.10443318
39	0x3e77ae76	0.24187645
40	0x3ef14308	0.47121453
41	0xbd87cc9f	-0.06630825
42	0x3e005e31	0.12535931
43	0x3f5caa46	0.86197317
44	0x3f94cbf4	1.1624742
45	0xbf163616	-0.5867628
46	0x3ebcc80a	0.36871368
47	0xbda069ad	-0.07832656
48	0xbda79d46	-0.081842944
49	0x3f542ddc	0.82882476
50	0xbf8ee2f0	-1.1163006
51	0xbf8615b6	-1.0475376
52	0x3f827c59	1.0194198
53	0x3f4bf5da	0.79672015
54	0x3f442530	0.76619244
55	0x3db8752b	0.09006723
56	0xbf440310	-0.76567173
57	0x3f4976a8	0.7869668
58	0x3bb87574	0.005629236
59	0x3e233b59	0.15940608
60	0x3ea21fd0	0.31664896
61	0xbee95f9c	-0.45580757
62	0x3f2ba9f5	0.6705621
63	0xbf7cc3a5	-0.9873603

l2.bias f4 [8]
0	0x3f08d426	0.5344871
1	0x3ebd19a1	0.36933616
2	0xbde2de0e	-0.1107751
3	0x3f17ef7c	0.593498
4	0xbde629c6	-0.112384364
5	0x3f1a5103	0.60279864
6	0x3f196670	0.5992193
7	0x3f3571fb	0.70877045

l3.weight f4 [7, 8]
0	0x3e3a196d	0.18173762
1	0x3db09fe2	0.08624245
2	0x3e5be930	0.21475673
3	0x3e561f3b	0.20910351
4	0xbe2b3236	-0.16718373
5	0xbf96e0fb	-1.1787409
6	0x3d7b1349	0.06129769
7	0x3dab218e	0.083560094
8	0x3f3c64f4	0.7359154
9	0xbf9f9a8e	-1.2469041
10	0xbf78014d	-0.96876985
11	0x3f200559	0.6250816
12	0x3e999473	0.2999607
13	0x3f61b4ee	0.881667
14	0xbfa269fe	-1.2688596
15	0xbf376931	-0.71644884
16	0xbfa19398	-1.2623167
17	0xbf2de195	-0.67922336
18	0xbf17d78f	-0.5931329
19	0xbf074f94	-0.528558
20	0xbe9931ad	-0.29920712
21	0x3f0aaae7	0.54167026
22	0x3f624526	0.8838676
23	0x3f4546dc	0.7706125
24	0x3c10812f	0.008819862
25	0xbfab8ae1	-1.3401757
26	0xbfa6f696	-1.3044002
27	0x3f35b518	0.7097945
28	0xbd3e9f98	-0.04653892
29	0x3ccda09e	0.025101002
30	0x3f34fdde	0.7069987
31	0xbf590b37	-0.8478274
32	0xbf3be9ae	-0.7340344
33	0x3f67f45c	0.9060724
34	0xbeaa5ad6	-0.33272427
35	0xbf3dfad9	-0.7421089
36	0xbe842ab2	-0.25813824
37	0xbf803878	-1.0017233
38	0xbf4ae157	-0.7925009
39	0xbf32bac1	-0.69816214
40	0xbf768ed7	-0.96311706
41	0x3e8589c6	0.26081675
42	0x3f2fed82	0.68721783
43	0xbf9caa5d	-1.2239491
44	0x3e4c60ba	0.19958773
45	0xbf711c84	-0.94184136
46	0x3f13723b	0.57596177
47	0x3d699459	0.05702624
48	0x3f50230a	0.81303465
49	0x3e710f54	0.23541003
50	0xbf73f4a5	-0.9529517
51	0xbf1b0821	-0.6055928
52	0xbe991921	-0.29901984
53	0x3d5553c0	0.052081823
54	0xbf8731fc	-1.0562129
55	0x3f4c367a	0.79770625

l3.bias f4 [7]
0	0xbeaa0dc4	-0.33213627
1	0x3d263090	0.040573657
2	0x3e8ad946	0.2711889
3	0x3bb36075	0.005474145
4	0xbd6b0e16	-0.05738648
5	0xbebbc754	-0.36675513
6	0xbd0488d1	-0.03235704
