src/data.pth (torch, 4503 bytes, 6 tensors)

l1.weight f4 [8, 41]
-0.31992227 0.5940164 -0.1533762 0.50995594 -0.25298008 0.7359565 -0.38977373 0.42251524
0.37066782 -0.0007953822 0.6097868 -0.4618034 -0.10013411 -0.46196577 -0.46187162 -0.2200865
-0.17188394 -0.1776597 0.628981 0.39666682 0.5167102 -0.12603933 0.7541078 -0.13871688
0.367458 0.5405475 0.440068 -0.07385816 0.28997985 0.5151505 0.52160674 0.39031538
0.6923897 -0.694487 -0.04184601 -0.010911297 0.6785687 -0.059170634 0.4835898 -0.19334228
0.23253043 -0.07475927 0.36012566 0.514043 0.5048101 0.050814465 0.021043358 -0.4459073
0.6391974 0.00030884694 0.469287 0.021176197 -0.056476146 -0.1555261 0.051428612 -0.061042927
0.6709018 0.06420072 0.20780578 -0.28220835 -0.37910494 -0.19333687 -0.036080867 0.2512805
0.108434714 0.67299527 0.57309765 -0.14985621 0.20202208 0.6705705 -0.07653707 0.7019244
0.69508326 0.22285123 -0.27243584 0.07015729 0.31887394 -0.108275995 0.23736241 0.50262886
0.24750528 0.36649045 -0.17967705 0.2981611 0.04671033 0.1435058 0.35418734 -0.66259617
0.3257163 0.69061375 0.46005532 0.33800885 -0.66259825 0.56624377 -0.1581861 0.5916383
0.5897205 0.23326044 0.28289077 0.40664303 0.4240591 0.49055797 -0.25310192 -0.054418713
0.5518769 0.37981412 0.28328633 0.284536 -0.45276836 0.41725487 0.05401877 0.49211684
0.2561606 0.26788992 0.45488334 -0.66257745 -0.18105084 0.27909163 0.65457773 0.39532155
0.21192914 0.2519975 0.078481 0.47831377 0.19765796 -0.06342889 -0.48168334 -0.23376127
1.0466118 0.4229718 0.34859455 0.32526445 0.20894858 1.0494906 0.51803434 0.12996261
0.27802515 0.48830634 -0.07313836 0.053801894 -0.21483777 0.590669 0.47111163 0.47733888
0.20108134 0.4270611 -0.18517847 -0.19121222 -0.06770324 0.7188153 -0.118159175 -0.17860803
0.5350174 -0.45502323 -0.3628821 0.6295686 0.11491526 0.28880483 -0.009814308 -0.38251695
-0.06601977 -0.21823034 -0.04229156 0.44151813 -0.2845801 0.3385182 -0.4031024 0.4029156
0.28472835 -0.063727915 0.28347543 0.1737649 0.5245239 0.4750381 0.044836495 0.62421006
-0.24219738 0.4458799 0.4154576 -0.46399823 0.11431158 0.23676163 0.67377794 0.68012094
0.12662284 -0.053885043 0.660972 0.21449819 0.16374671 0.32720637 -0.091337755 0.27844548
0.28581023 0.5344925 0.30982673 0.3397014 0.61272085 -0.59086 -0.06416651 0.28542003
-0.59099704 0.3584415 0.48919454 0.33790442 -1.673631e-05 0.65753186 0.26857647 -0.38020402
0.25845787 0.4617306 0.6504664 -0.12423744 -0.5956999 -0.2279766 -0.15256764 0.7038153
-0.5061504 0.5121862 -0.44479322 -0.25513113 -0.47623542 0.3928776 0.5043933 -0.4446149
-0.29371873 0.29232436 0.35688692 -0.109641135 0.45193273 0.17926776 -0.023563396 0.45017746
0.34486023 0.01791475 -0.11091551 0.2753948 0.21931945 -0.32327378 0.888198 0.46818173
0.46777773 -0.7716611 0.3100847 0.40602726 0.39257854 0.5296421 0.011442764 0.22061746
-0.34313208 0.21145758 0.2302618 -0.57237756 0.30915606 -0.2108531 0.09260872 0.59489214
00000000: dacc a3be 7511 183f a70e 1dbe 798c 023f
00000010: 9b86 81be a567 3c3f 6c90 c7be eb53 d83e
00000020: 2cc8 bd3e 3281 50ba fd1a 1c3f 7f71 ecbe
00000030: 1d13 cdbd c786 ecbe 707a ecbe 5b5e 61be
00000040: 5802 30be 6dec 35be e604 213f ea17 cb3e
00000050: 1f47 043f 7410 01be 350d 413f cc0b 0ebe
00000060: 7423 bc3e 5261 0a3f 9850 e13e f242 97bd
00000070: 3d78 943e e7e0 033f 0588 053f 6bd7 c73e
00000080: 7440 313f e6c9 31bf b966 2bbd 4cc5 32bc
00000090: aeb6 2d3f e85c 72bd 1599 f73e 85fb 45be
000000a0: 751c 6e3e 631b 99bd 6462 b83e 5298 033f
000000b0: 3c3b 013f d422 503d 1f63 ac3c f64d e4be
000000c0: 71a2 233f bcec a139 6346 f03e b479 ad3c
000000d0: 8853 67bd 3c42 1fbe cfa6 523d 2608 7abd
000000e0: 38c0 2b3f ab7b 833d 0acb 543e 9d7d 90be
000000f0: 0b1a c2be 1afa 45be 88c9 13bd d6a7 803e
00000100: 0513 de3d 6b49 2c3f 87b6 123f e873 19be
00000110: e0de 4e3e 82aa 2b3f 78bf 9cbd 51b1 333f
00000120: faf0 313f 1d33 643e b67c 8bbe a0ae 8f3d
00000130: 7243 a33e cebf ddbd 220f 733e 49ac 003f
00000140: 0672 7d3e a3a4 bb3e 43fd 37be 92a8 983e
00000150: 5553 3f3d 2ff3 123e 0b58 b53e e79f 29bf
00000160: 49c4 a63e 10cc 303f 5f8c eb3e 7f0f ad3e
00000170: 0aa0 29bf 5af5 103f 89fb 21be 9c75 173f
00000180: ecf7 163f d3db 6e3e 0fd7 903e 8433 d03e
00000190: 461e d93e 6a2a fb3e 9396 81be 28e6 5ebd
000001a0: ce47 0d3f ff76 c23e e80a 913e b4ae 913e
000001b0: 41d1 e7be 6ea2 d53e c942 5d3d bdf6 fb3e
000001c0: 7b27 833e de28 893e 78e6 e83e ad9e 29bf
000001d0: 6465 39be 19e5 8e3e 6892 273f 9667 ca3e
000001e0: f403 593e d105 813e a6ba a03d 8be5 f43e
000001f0: d966 4a3e 02e7 81bd 339f f6be 1d5f 6fbe
00000200: 60f7 853f c38f d83e fc7a b23e 1089 a63e
00000210: 9ef6 553e b555 863f e69d 043f eb14 053e
00000220: 5059 8e3e 4a03 fa3e 91c9 95bd 605f 5c3d
00000230: 6ffe 5bbe 1536 173f 8b35 f13e c365 f43e
00000240: 44e8 4d3e c1a7 da3e 6d9f 3dbe 23cd 43be
00000250: ffa7 8abd 4804 383f 70fd f1bd 06e5 36be
00000260: e6f6 083f cef8 e8be afcb b9be 682b 213f
00000270: b158 eb3d 3ade 933e 31cc 20bc 43d9 c3be
00000280: 6035 87bd c677 5fbe ea39 2dbd aa0e e23e
00000290: 7cb4 91be 4252 ad3e 7063 cebe f44a ce3e
000002a0: eac7 913e c883 82bd b123 913e 6def 313e
000002b0: 3347 063f 3238 f33e 79a6 373d 3bcc 1f3f
000002c0: 9702 78be 5f4a e43e dcb6 d43e 2d91 edbe
000002d0: 311c ea3d a471 723e b67c 2c3f 681c 2e3f
000002e0: 6ba9 013e 90b6 5cbd 7635 293f 6aa5 5b3e
000002f0: 38ad 273e 9887 a73e 4a0f bbbd 6890 8e3e
00000300: b855 923e 80d4 083f 9ca1 9e3e 58ed ad3e
00000310: 46db 1c3f 9a42 17bf bb69 83bd 9322 923e
00000320: 954b 17bf a585 b73e b577 fa3e cf01 ad3e
00000330: f464 8cb7 0254 283f db82 893e 1aaa c2be
00000340: 9754 843e f467 ec3e f784 263f 3370 febd
00000350: ca7f 18bf b372 69be b13a 1cbe 3d2d 343f
00000360: 1393 01bf a31e 033f f0bb e3be 8ca0 82be
00000370: 21d5 f3be 4127 c93e eb1f 013f 90a4 e3be
00000380: 4d62 96be 8aab 953e e2b9 b63e 888b e0bd
00000390: ba63 e73e f891 373e 0608 c1bc a97d e63e
000003a0: 8591 b03e f4c1 923c ac27 e3bd 8c00 8d3e
000003b0: 4795 603e 2484 a5be f260 633f 84b5 ef3e
000003c0: 9080 ef3e 958b 45bf 6cc3 9e3e cee2 cf3e
000003d0: 0e00 c93e a096 073f 6e7a 3b3c 8be9 613e
000003e0: 02af afbe 5688 583e c0c9 6b3e 5687 12bf
000003f0: b449 9e3e e0e9 57be a4a9 bd3d da4a 183f

l1.bias f4 [8]
0.46189928 -0.023432031 0.6625623 0.8270768 0.590827 0.771625 0.5723681 0.73593664
00000000: 107e ec3e 88f4 bfbc af9d 293f 4ebb 533f
00000010: 7040 173f 3789 453f b786 123f 5866 3c3f

l2.weight f4 [8, 8]
-0.59885126 -0.816547 -0.56365913 0.94127196 0.5985153 1.1988776 0.53920996 0.11277186
-0.1075915 0.514224 0.0056160474 -0.16882128 -0.035619054 1.0868838 0.8217565 -1.1285651
0.9136622 -0.13621096 0.008694922 0.888506 0.995346 -0.48113677 -0.24322866 -0.6008249
0.047703996 -0.34069183 0.67403835 0.69429874 0.16415599 -0.7567889 -0.012997225 1.0902026
-1.2707007 -0.5921097 0.6385784 0.47889945 0.46151796 0.44622013 1.0514785 -0.36839068
0.8121689 1.1422954 0.9261814 0.32969233 0.32219937 -0.77718496 0.8809401 1.1373911
0.89771545 -0.23186335 -0.4272054 0.9494784 -0.3515352 0.9692897 -1.075013 0.5473285
0.99018604 0.58552116 0.8083987 -0.29557085 0.9516417 0.41585505 0.042116567 -1.2359726
00000000: 514e 19bf 3909 51bf f74b 10bf 33f7 703f
00000010: 4c38 193f d274 993f aa09 0a3f eff4 e63d
00000020: ef58 dcbd 2fa4 033f d206 b83b 7cdf 2cbe
00000030: 49e5 11bd 021f 8b3f a25e 523f d274 90bf
00000040: c4e5 693f e37a 0bbe 2575 0e3c 2175 633f
00000050: ffce 7e3f 8f57 f6be ef10 79be a9cf 19bf
00000060: 4465 433d 296f aebe c78d 2c3f 90bd 313f
00000070: 8218 283e ebbc 41bf 50f2 54bc c28b 8b3f
00000080: 52a6 a2bf 8094 17bf e079 233f 4f32 f53e
00000090: 154c ec3e f776 e43e d996 863f b49d bcbe
000000a0: 4dea 4f3f bc36 923f 391a 6d3f 6fcd a83e
000000b0: 51f7 a43e 98f5 46bf 4a85 613f 0896 913f
000000c0: aed0 653f 966d 6dbe abba dabe 0411 733f
000000d0: 6cfc b3be 5f23 783f 079a 89bf b81d 0c3f
000000e0: d57c 7d3f b7e4 153f 38f3 4e3f 1055 97be
000000f0: ca9e 733f f4ea d43e 6c82 2c3d 5a34 9ebf

l2.bias f4 [8]
0.51311785 0.24672721 0.10619327 0.46611372 0.29800758 0.45725226 0.6482334 -0.26999217
00000000: b15b 033f 0fa6 7c3e db7b d93d 75a6 ee3e
00000010: 7394 983e f81c ea3e a0f2 253f 6a3c 8abe

l3.weight f4 [7, 8]
-0.75463396 -0.9366417 0.4528806 0.22529906 -0.9405743 0.10543564 0.053909533 0.38916096
0.5177766 -0.931308 0.19811955 0.008532346 -1.0988747 -0.14812467 0.80105656 -0.95972425
0.5936819 -0.87557137 -0.051300135 0.45219105 0.86376935 0.33549723 -1.044395 -0.9289076
-1.2091783 -0.37196323 -0.3775876 0.65431255 -1.3731804 0.9613159 0.14311491 -1.1801641
-0.14282271 0.5844664 -1.0383767 -0.3553616 0.58523077 -0.5224731 -0.763522 0.53593856
-0.5080574 0.37268656 0.07287502 -0.75661534 -0.74474305 0.3062126 -0.98402655 0.4919297
0.66538984 0.7584606 -1.0166736 -0.6315755 0.3841671 -1.2886939 0.58090323 -0.8067647
00000000: b12f 41bf c0c7 6fbf f7df e73e ccb4 663e
00000010: 7ac9 70bf a4ee d73d 3ed0 5c3d 1b40 c73e
00000020: 028d 043f 336a 6ebf dadf 4a3e 41cb 0b3c
00000030: eda7 8cbf fead 17be 0b12 4d3f 7db0 75bf
00000040: 89fb 173f 7225 60bf 1720 52bd 9685 e73e
00000050: fd1f 5d3f 4bc6 ab3e bcae 85bf e3cc 6dbf
00000060: 5bc6 9abf f771 bebe 2953 c1be 0781 273f
00000070: 60c4 afbf cc18 763f b78c 123e 9e0f 97bf
00000080: 1e40 12be 979f 153f 87e9 84bf f5f1 b5be
00000090: afd1 153f ccc0 05bf 2e76 43bf 4533 093f
000000a0: 0d10 02bf c6d0 be3e 803f 953d 8bb1 41bf
000000b0: 7ba7 3ebf e6c7 9c3e 2ae9 7bbf 36de fb3e
000000c0: fd56 2a3f 792a 423f 5c22 82bf efae 21bf
000000d0: 8db1 c43e ecf3 a4bf 13b6 143f 2288 4ebf

l3.bias f4 [7]
-0.536927 0.15308027 -0.30470905 0.19435424 -0.37018478 0.023129964 0.02509721
00000000: 0c74 09bf 13c1 1c3e d302 9cbe cc04 473e
00000010: dc88 bdbe 0d7b bd3c aa98 cd3c
